src/rl_controller/policy.onnx (onnx, 574729 bytes, 8 tensors)

actor.0.weight f4 [256, 36]
-0.76104575 0.72585136 -0.069680564 -0.9268525 3.7475498 -0.30775985 0.08368728 -0.053469956
0.1777976 1.2595385 -0.5225664 0.01140757 0.8302163 0.23323233 -0.1031309 -0.2961753
-0.3986188 0.24821548 -0.10704636 -0.0056648394 0.0015937916 -0.050098993 0.034046937 -0.006089578
0.0056370217 0.026594264 -0.004690552 0.20146492 -0.102976784 -0.037706725 -0.33889166 0.06979324
0.37762165 0.06946747 -0.059874866 -0.06931837 0.28523865 0.4424432 0.03984488 -0.5797106
-0.37145498 -0.37544563 -0.18165442 0.15563574 0.19306873 -0.006647905 -1.476029 -0.12708458
1.1408573 -0.3052259 -0.3799686 0.010001169 -0.23847452 -0.25895762 -0.033145644 0.035199955
0.040515296 0.00834863 -0.24008735 0.009620892 0.036975108 -0.041403394 0.027507743 0.108694166
0.12730926 0.1422733 0.0034772987 0.123603486 -0.16266939 -0.012755644 0.13382694 -0.31177923
-0.529591 0.1185623 -0.1301211 -0.5769362 2.1747417 0.30054063 0.059242878 0.11454239
0.8150724 0.55403614 -0.23521852 -0.26373625 0.78598577 1.2799443 -0.13255987 -0.5330325
-0.60249895 -0.08888747 -0.04547062 -0.15407233 -0.04530128 -0.13688193 0.052066006 -0.03717338
0.005307991 0.07910657 -0.017864825 0.20316419 0.02854006 -0.059040014 0.17803426 -0.29672647
-0.24447878 -0.1094635 -0.10848633 0.003517422 0.24244845 -0.058651384 0.048814476 -0.14244626
-0.23016565 -0.37144557 -0.931413 0.0428352 -0.14352238 0.55454046 -0.075531445 0.2805806
0.16606513 0.48330316 -0.23371613 0.11319173 0.07620232 0.008766722 0.00979884 0.01828528
-0.05150795 0.050114322 0.094047956 -0.008793217 0.0044927304 0.03116215 0.016265465 -0.01771202
0.13088244 0.028461663 -0.16497438 0.05902268 -0.11245582 0.14378989 -0.17141488 -0.023399733
-0.06587992 0.2255983 -0.056007735 0.4327183 -0.13303523 -0.042406477 0.089376695 0.09669783
-0.078180514 -0.69929045 1.4472756 0.41182998 -1.4555277 -0.09352835 -0.4791907 0.30564195
0.61172605 -0.2848596 0.0222756 0.020766817 0.01914899 0.009320185 0.014297469 -0.02326292
0.009955281 0.04894025 -0.0066498183 -0.21118008 -0.18257743 -0.09960611 0.13138798 -0.016746402
0.088399254 -0.105476394 -0.20036931 0.03261641 0.5148817 -0.38472408 0.21819027 -1.1097971
-0.5210477 -0.06838645 0.161263 -0.10567814 -0.25200537 0.4374579 -0.75995016 -0.21280731
0.6182385 0.34030133 0.28703028 -0.17889896 0.7403884 -0.28924003 0.06123405 -0.1663757
0.0019536777 0.049399223 0.1612419 0.026060374 -0.035563856 0.040167674 0.01429703 -0.06356892
-0.13891776 -0.1867853 0.3250902 -0.1481917 0.29784808 0.08166082 0.15826814 -0.025741724
0.13361083 0.033338577 -0.15178661 -1.3634187 -0.517881 0.084335774 0.4706759 0.13677719
-0.2312279 0.32010683 0.19162141 -0.03770098 -0.37857336 1.6546758 0.14911284 -0.45680657
0.9891769 0.03195156 -0.029364675 -0.04312371 -0.029608062 0.06034209 0.28120828 0.025902642
-0.02089695 0.00675245 0.028777776 -0.0058284258 0.6205875 0.10461063 -0.23195441 -0.16386576
0.048888844 0.01195913 0.19750287 -0.041460354 -0.06511285 0.24733977 -0.15818533 -1.552102
00000000: e5d3 42bf 65d1 393f afb4 8ebd 3546 6dbf
00000010: dbd7 6f40 b392 9dbe 3d64 ab3d 5003 5bbd
00000020: 9310 363e 8f38 a13f e9c6 05bf d1e6 3a3c
00000030: 0e89 543f 75d4 6e3e 4b36 d3bd 4aa4 97be
00000040: c317 ccbe 332c 7e3e 1f3b dbbd 1ea0 b9bb
00000050: c6e6 d03a 9a34 4dbd cd74 0b3d 158b c7bb
00000060: c4b6 b83b 37dc d93c 34b3 99bb d24c 4e3e
00000070: 7ee5 d2bd 5e72 1abd 3583 adbe c2ef 8e3d
00000080: a057 c13e f644 8e3d 593f 75bd caf6 8dbd
00000090: cd0a 923e ea87 e23e 6334 233d ea67 14bf
000000a0: 592f bebe 693a c0be 9e03 3abe fa5e 1f3e
000000b0: cfb3 453e abd6 d9bb 85ee bcbf 7622 02be
000000c0: 9d07 923f 9246 9cbe 3f8b c2be f1db 233c
000000d0: aa32 74be 1896 84be bac3 07bd d42d 103d
000000e0: 5ef3 253d b1c8 083c 75d9 75be f2a0 1d3c
000000f0: 3673 173d 9b96 29bd eb57 e13c 0c9b de3d
00000100: 5c5d 023e 18b0 113e 64e3 633b d323 fd3d
00000110: ce92 26be 0cfd 50bc ee09 093e 87a1 9fbe
00000120: 4793 07bf cbd0 f23d 773e 05be 17b2 13bf
00000130: f82e 0b40 76e0 993e a9a8 723d 3395 ea3d
00000140: 96a8 503f 50d5 0d3f 20dd 70be 7008 87be
00000150: 5d36 493f 37d5 a33f c6bd 07be d174 08bf
00000160: 5f3d 1abf a20a b6bd 673f 3abd 23c5 1dbe
00000170: d68d 39bd c72a 0cbe 2a43 553d 1d43 18bd
00000180: a8ee ad3b a002 a23d 4159 92bc 460a 503e
00000190: d8cc e93c f1d3 71bd 9d4e 363e 88ec 97be
000001a0: a558 7abe 662e e0bd 152e debd 8c84 663b
000001b0: 6844 783e 6f3c 70bd b0f1 473d 6fdd 11be
000001c0: 8bb0 6bbe 1d2e bebe 1571 6ebf f673 2f3d
000001d0: 88f7 12be 5df6 0d3f 3bb0 9abd 43a8 8f3e
000001e0: fa0c 2a3e 8373 f73e 4853 6fbe 11d1 e73d
000001f0: f60f 9c3d 4ca2 0f3c 508b 203c 03cb 953c
00000200: 00fa 52bd ad44 4d3d 379c c03d 6d11 10bc
00000210: c137 933b c447 ff3c 273f 853c cc18 91bc
00000220: 0c06 063e 6f28 e93c 0bef 28be c4c1 713d
00000230: 3d4f e6bd a83d 133e 6287 2fbe ccb0 bfbc
00000240: 0dec 86bd 3e03 673e 5e68 65bd 418d dd3e
00000250: 633a 08be 6ab2 2dbd 210b b73d 8309 c63d
00000260: 1b1d a0bd b304 33bf 5440 b93f 61db d23e
00000270: bb4e babf cb8b bfbd 7c58 f5be 1a7d 9c3e
00000280: 149a 1c3f 1ed9 91be 527b b63c 2c1f aa3c
00000290: 58de 9c3c b0b3 183c ee3f 6a3c e191 bebc
000002a0: 7a1b 233c 9275 483d b8e6 d9bb 973f 58be
000002b0: 94f5 3abe 4afe cbbd 928a 063e c02f 89bc
000002c0: ab0a b53d 0204 d8bd 9d2d 4dbe c998 053d
000002d0: 49cf 033f 8efa c4be 456d 5f3e d50d 8ebf
000002e0: 6263 05bf 320e 8cbd 2122 253e c86d d8bd
000002f0: d906 81be 7bfa df3e 188c 42bf 29ea 59be
00000300: e144 1e3f fa3b ae3e a2f5 923e 4a31 37be
00000310: 188a 3d3f 4517 94be 8ed0 7a3d 645e 2abe
00000320: 4609 003b d756 4a3d 991c 253e 917c d53c
00000330: 68ab 11bd dc86 243d 173e 6a3c 6c30 82bd
00000340: 7540 0ebe a544 3fbe 3972 a63e 91bf 17be
00000350: 8b7f 983e ca3d a73d 0b11 223e 4fe0 d2bc
00000360: 47d1 083e 088e 083d f36d 1bbe 8184 aebf
00000370: d993 04bf 3cb8 ac3d 6efc f03e 520f 0c3e
00000380: 02c7 6cbe 0be5 a33e 6738 443e 586c 1abd
00000390: 5ed4 c1be 6bcc d33f 09b1 183e 8de2 e9be
000003a0: b33a 7d3f a4df 023d 308e f0bc 7da2 30bd
000003b0: 9b8c f2bc 4429 773d 88fa 8f3e c731 d43c
000003c0: 1530 abbc a843 dd3b 5fbf eb3c 61fc bebb
000003d0: d3de 1e3f 193e d63d 7585 6dbe 6dcc 27be
000003e0: ab3f 483d 3af0 433c 313e 4a3e 55d2 29bd
000003f0: e359 85bd a346 7d3e 56fb 21be 47ab c6bf

actor.0.bias f4 [256]
0.46144518 0.38883537 -0.5682865 0.4645678 -0.08496484 -0.039698727 -0.2820581 0.008857545
-0.12711082 -0.3223352 0.13365752 -0.18836156 -0.19855158 -0.09579562 -0.020875901 -0.40666628
0.27088034 -0.21156324 -0.14365669 0.00045623645 -0.31983328 0.544138 -0.09149219 -0.27867413
-0.052939914 0.2910753 -0.29545614 -0.32871225 -0.17874216 0.21339478 0.6068494 0.4835148
-0.5139841 0.53559285 -0.3247672 -0.10682816 0.5570497 0.040501073 0.009420446 0.57166165
-0.61324525 0.13282138 0.026934471 -0.10082124 0.7082299 -0.3826483 0.050952543 -0.059737843
0.5430569 -0.29845136 0.32453245 -0.31753793 0.046076406 -0.7378137 0.10506412 0.20496108
0.56280255 -0.2768429 -0.3424732 -0.47552708 -0.35669416 -0.26677898 -0.10933383 -0.5158063
-0.14784096 0.39305484 0.3399514 -0.15925883 -0.09707371 -0.12310817 -0.5368877 -0.058095314
-0.2938846 -0.9713664 0.3034879 0.11976756 -0.40689257 -0.43799332 0.013153084 0.2634402
-0.1504842 0.010306566 0.24522087 -0.123691484 0.11278135 -0.3197701 -0.9186162 -0.11336
-0.098549776 0.4405749 0.17806102 0.29945144 -0.4454691 -0.610705 0.18323633 -0.41953793
-0.31560463 0.88149154 0.21401711 -0.16407925 0.45372894 -0.11246924 0.5416436 0.103734
-0.30487183 -0.19817401 0.079153076 -0.60535854 0.43275714 -0.056470882 0.6209358 0.33844644
-0.28523612 0.050214376 -0.41019768 0.079036996 -0.11986961 -0.40544835 -0.12804228 0.34885028
0.10212449 -0.11729993 0.047460634 0.026011765 -0.21818611 0.16408007 -0.2622219 -0.42218366
-0.6038712 0.2847537 0.82360804 0.42811596 -0.35532865 -0.3612708 -0.28184295 0.2458983
0.017937241 -0.09537187 0.40016866 0.28258336 -0.36806127 -0.42420363 -0.5259931 -0.5587387
-0.23580854 -0.526872 -0.17054106 -0.43134424 -0.6125041 0.42207003 0.53196096 -0.2507219
0.008143954 -0.646045 0.16950752 -0.019487526 0.31779543 -0.27499175 -0.24654983 -0.37337968
-0.113108 0.03366752 0.46157765 -0.6107216 -0.42106533 0.6133977 0.17943029 0.33522156
-0.61557454 0.090662256 -0.16118051 -0.027188484 0.12972268 0.24157953 -0.6885043 -0.6824457
0.6200027 0.0033137095 -0.12158935 -0.55603826 -0.2184524 -0.05226057 0.12584542 -0.43421006
0.13679276 -0.44874266 0.42166734 0.35573894 0.086542346 0.21294996 0.4672155 -0.0053573237
0.29519755 -0.27916333 0.05312008 -0.08464686 -0.08377118 0.019092025 0.32560003 0.044417307
0.47512448 0.49649808 0.19566216 0.31750867 0.049001332 -0.052175153 0.117527105 0.006474569
-0.3584819 -0.38769132 -0.36719012 0.34214106 -0.4869302 0.58477026 -0.19455747 0.68837696
-0.24278618 -0.4354284 0.33687404 0.30471316 -0.1161192 -0.12694162 0.17552473 0.17170514
-0.22751956 -0.16473165 -0.04964298 -0.5909117 0.11410412 -0.53570926 -0.34420753 -0.23677552
0.24365056 -0.87326187 -0.09260658 0.06101103 -0.6041955 0.44481394 -0.07156039 0.30746627
-0.4551493 -0.6536821 0.43161654 0.46733308 -0.3117716 0.26642874 0.0084131565 -0.60806125
-0.12958899 -0.11615719 -0.059477635 -0.1190969 0.16873021 -0.17841013 -0.42782757 -0.3048766
00000000: 8b42 ec3e 6e15 c73e 397b 11bf d5db ed3e
00000010: 0c02 aebd 229b 22bd eb69 90be 3d1f 113c
00000020: 5729 02be 1f09 a5be 84dd 083e dae1 40be
00000030: 1b51 4bbe 7e30 c4bd f003 abbc 9036 d0be
00000040: d4b0 8a3e 09a4 58be bd1a 13be 0533 ef39
00000050: 30c1 a3be a14c 0b3f 4260 bbbd 60ae 8ebe
00000060: 86d7 58bd d207 953e 0746 97be f94c a8be
00000070: 2f08 37be 2984 5a3e 7b5a 1b3f 408f f73e
00000080: 7694 03bf 9d1c 093f e347 a6be b9c8 dabd
00000090: cf9a 0e3f 74e4 253d 3758 1a3c 6b58 123f
000000a0: a4fd 1cbf 5402 083e aea5 dc3c 5e7b cebd
000000b0: 8e4e 353f 7aea c3be 9db3 503d abaf 74bd
000000c0: c705 0b3f 9ece 98be 1e29 a63e 5594 a2be
000000d0: 9dba 3c3d 5ce1 3cbf db2b d73d 51e1 513e
000000e0: d413 103f 5abe 8dbe a658 afbe 4978 f3be
000000f0: 9ea0 b6be 4197 88be 6aea dfbd e20b 04bf
00000100: 9f63 17be 7c3e c93e 1c0e ae3e bf14 23be
00000110: 95ce c6bd 2320 fcbd 7971 09bf 5af5 6dbd
00000120: 0b78 96be 78ab 78bf c462 9b3e b248 f53d
00000130: 3954 d0be a940 e0be 0880 573c a2e1 863e
00000140: 8818 1abe dfdc 283c 2e1b 7b3e f651 fdbd
00000150: e9f9 e63d e8b8 a3be 6e2a 6bbf 4a29 e8bd
00000160: 77d4 c9bd 0993 e13e a155 363e b351 993e
00000170: 8714 e4be 2a57 1cbf 4ea2 3b3e adcd d6be
00000180: ee96 a1be 6ea9 613f 4d27 5b3e 6404 28be
00000190: 294f e83e 4656 e6bd 28a9 0a3f 7e72 d43d
000001a0: 2918 9cbe 21ee 4abe 021b a23d c7f8 1abf
000001b0: 5892 dd3e 034e 67bd a6f5 1e3f da48 ad3e
000001c0: 780a 92be 97ad 4d3d 6e05 d2be 26de a13d
000001d0: 337e f5bd ed96 cfbe 841d 03be 819c b23e
000001e0: a526 d13d f23a f0bd 1566 423d a016 d53c
000001f0: 2e6c 5fbe 9b04 283e f341 86be 7528 d8be
00000200: 4e97 1abf 3dcb 913e fad7 523f 0432 db3e
00000210: a3ed b5be 7cf8 b8be b84d 90be c4cc 7b3e
00000220: 1ff1 923c 5452 c3bd e8e2 cc3e c4ae 903e
00000230: 8772 bcbe 3831 d9be 7ca7 06bf 8009 0fbf
00000240: cb77 71be 15e1 06bf 51a2 2ebe 27d9 dcbe
00000250: 12cd 1cbf 9019 d83e 982e 083f 9f5e 80be
00000260: 386e 053c 3563 25bf 6193 2d3e 4ea4 9fbc
00000270: 15b6 a23e b8cb 8cbe 8f77 7cbe 9f2b bfbe
00000280: 2ba5 e7bd f4e6 093d e853 ec3e 4058 1cbf
00000290: e095 d7be a207 1d3f 93bc 373e 29a2 ab3e
000002a0: 4b96 1dbf 22ad b93d 810c 25be 62ba debc
000002b0: 06d6 043e a060 773e d141 30bf c3b4 2ebf
000002c0: 7fb8 1e3f d22a 593b d603 f9bd 8658 0ebf
000002d0: fcb1 5fbe 2e0f 56bd 9fdd 003e c850 debe
000002e0: 6713 0c3e 99c1 e5be c8e4 d73e 6a23 b63e
000002f0: 1d3d b13d 8e0f 5a3e df36 ef3e 7d8c afbb
00000300: 2224 973e 7fee 8ebe 7194 593d 555b adbd
00000310: 3990 abbd e166 9c3c 0cb5 a63e ecee 353d
00000320: 8443 f33e ff34 fe3e a95b 483e 7f90 a23e
00000330: 9fb5 483d 9db5 55bd 0db2 f03d 9f28 d43b
00000340: f18a b7be 7a7f c6be 5800 bcbe 1d2d af3e
00000350: ea4e f9be 81b3 153f 133a 47be 7939 303f
00000360: f19c 78be 79f0 debe c17a ac3e 5d03 9c3e
00000370: e7cf edbd fcfc 01be c1bc 333e 79d3 2f3e
00000380: e3fa 68be 6aaf 28be 7056 4bbd fd45 17bf
00000390: 6caf e93d 3e24 09bf f83b b0be 4875 72be
000003a0: 887f 793e 178e 5fbf 85a8 bdbd b4e6 793d
000003b0: 8eac 1abf a7be e33e 418e 92bd 386c 9d3e
000003c0: 5409 e9be b657 27bf d8fc dc3e 4846 ef3e
000003d0: 87a0 9fbe 5969 883e 56d7 093c e7a9 1bbf
000003e0: fab2 04be d2e3 edbd d29e 73bd 13e9 f3bd
000003f0: 9dc7 2c3e 25b1 36be 370c dbbe c918 9cbe

actor.2.weight f4 [256, 256]
-0.105170645 0.1487026 0.09378112 -0.09889314 -0.108088166 -0.07017531 -0.1559367 0.10945944
0.13848473 0.11548763 0.19209161 0.033907823 0.17493045 -0.033754744 -0.12969898 -0.15479694
-0.16658984 0.0383351 0.024567712 -0.21604441 0.21644394 -0.1965115 -0.3615814 0.19218585
0.07677758 0.10836695 -0.06401791 0.24670951 0.07639681 -0.18672618 -0.16824941 -0.07396949
0.08052684 -0.084630966 0.033108898 -0.28034618 0.03881629 -0.10135058 0.11923209 -0.45889214
-0.078500636 0.116163425 -0.1588235 -0.13681543 -0.16231972 0.09438387 -0.019808855 0.14433677
-0.104641825 0.0924955 0.1294718 -0.11505927 -0.22792101 0.20645185 -0.04685211 0.22643156
-0.05404633 -0.035960544 0.044759355 0.04585728 -0.27136597 -0.06216872 -0.024965163 -0.11457923
-0.30166757 0.1382156 -0.13584548 -0.21457644 0.18947485 -0.07016976 0.13864912 0.17796262
-0.1950866 0.110650025 -0.38787225 -0.10916957 -0.1460501 -0.002780958 0.10461384 0.09925821
-0.047324494 -0.041288227 0.04316303 -0.33902016 -0.31808037 -0.20514795 0.21362594 0.028922714
0.026847359 -0.2559647 0.15121703 -0.022326345 0.22058003 0.07844091 -0.035136938 0.15888712
0.120482005 -0.10267599 -0.012971196 -0.2930802 -0.09796411 -0.076910056 -0.0313953 0.07538893
0.060775913 -0.4341033 -0.15906535 0.2625836 -0.08036374 -0.15425864 -0.2546182 -0.26336733
-0.15195623 0.1623098 0.055172253 0.11514599 -0.019204207 0.08973381 0.34746388 0.13441567
-0.14233348 0.08881441 -0.13719134 -0.021091849 -0.1523201 -0.16194062 -0.029599726 0.051942874
0.22088172 -0.19504108 -0.13804623 -0.16539116 0.13732302 -0.24750942 0.17710386 -0.20208883
-0.056445494 -0.08375722 0.16077869 -0.19147934 -0.044294838 -0.09797641 -0.06470779 -0.058107417
-0.20749864 -0.09478643 -0.24923462 0.16494931 0.06392326 0.021504095 -0.009109691 0.10112697
-0.05070124 -0.071503244 -0.14770234 -0.0725951 -0.006935196 -0.21923399 -0.0064061214 0.39982426
-0.15403135 0.06870242 0.028437048 -0.080745876 -0.0012468968 -0.058985412 -0.059063673 -0.40307668
-0.10557358 0.123296805 0.23870574 -0.16531835 -0.04465037 -0.23134246 0.048889484 -0.046200167
0.077037156 0.01722918 -0.11706699 -0.047046747 0.09387793 0.0884297 0.012897182 0.016834445
-0.17654158 0.103592224 -0.13438365 -0.10279699 -0.029481322 0.08953545 -0.1324532 0.06401097
0.040843673 0.20899363 -0.103233814 -0.087241516 0.09885614 0.0035375138 0.05989912 0.13924506
-0.08414165 -0.023627946 -0.24900042 0.055460766 -0.24607396 -0.16419949 -0.3051545 -0.20859605
-0.07599892 -0.13898695 0.12669508 0.05006108 0.02410223 -0.32239574 -0.14046885 -0.16698328
0.08594862 0.04589419 -0.20155497 -0.10084535 0.24543303 -0.10280129 -0.05545829 -0.26775208
-0.018878229 -0.28320727 -0.0136348605 -0.04530327 -0.30054188 -0.035753924 -0.07875709 0.1259442
-0.010335086 0.1564887 -0.1120612 -0.07862447 0.16149324 0.071502075 0.29290304 -0.022101568
0.07811896 0.11603915 -0.10890176 -0.2048887 -0.073986195 -0.090017736 -0.20026933 0.030898558
0.06979277 0.25813225 -0.256402 -0.06336334 -0.5023442 -0.06904583 0.17100376 -0.035041753
00000000: b563 d7bd 7f45 183e 5110 c03d 7d88 cabd
00000010: 545d ddbd 13b8 8fbd dfad 1fbe 452c e03d
00000020: f1ce 0d3e c784 ec3d aab3 443e eee2 0a3d
00000030: f820 333e 6a42 0abd cfcf 04be 1783 1ebe
00000040: 8796 2abe 4405 1d3d 3a42 c93c bf3a 5dbe
00000050: 7ba3 5d3e 503a 49be 3221 b9be 5ecc 443e
00000060: 903d 9d3d 7eef dd3d d21b 83bd 6ba1 7c3e
00000070: ee75 9c3d 2635 3fbe 9349 2cbe 517d 97bd
00000080: 42eb a43d 0053 adbd 329d 073d 8989 8fbe
00000090: d5fd 1e3d e590 cfbd f42f f43d e9f3 eabe
000000a0: f1c4 a0bd 17e7 ed3d a1a2 22be 5819 0cbe
000000b0: 2437 26be 554c c13d 2e46 a2bc 05cd 133e
000000c0: 744e d6bd 486e bd3d 4194 043e 32a4 ebbd
000000d0: 2064 69be 1d68 533e 00e8 3fbd addd 673e
000000e0: af5f 5dbd 5d4b 13bd 9655 373d d8d4 3b3d
000000f0: 7bf0 8abe a1a4 7ebd be83 ccbc 84a8 eabd
00000100: 2c74 9abe 6488 0d3e 141b 0bbe edb9 5bbe
00000110: b205 423e 2ab5 8fbd 09fa 0d3e d53b 363e
00000120: c8c4 47be 7b9c e23d 3197 c6be 4c94 dfbd
00000130: 288e 15be bc40 36bb c83f d63d e347 cb3d
00000140: 54d7 41bd d81d 29bd b8cb 303d 0d94 adbe
00000150: 6edb a2be 4e12 52be c2c0 5a3e 54ef ec3c
00000160: feee db3c ce0d 83be a3d8 1a3e bde5 b6bc
00000170: bbdf 613e a1a5 a03d c0eb 0fbd 4eb3 223e
00000180: 45bf f63d ca47 d2bd 2485 54bc 9c0e 96be
00000190: 68a1 c8bd 0583 9dbd 5c98 00bd 8365 9a3d
000001a0: 2af0 783d ca42 debe 07e2 22be 5c71 863e
000001b0: bf95 a4bd faf5 1dbe 515d 82be 15d8 86be
000001c0: 6a9a 1bbe 8a34 263e 4dfc 613d a9d1 eb3d
000001d0: 2452 9dbc 5cc6 b73d c9e6 b13e 43a4 093e
000001e0: debf 11be 54e4 b53d e37b 0cbe d0c8 acbc
000001f0: cdf9 1bbe c3d3 25be 207b f2bc 0dc2 543d
00000200: d12e 623e d9b8 47be fe5b 0dbe 4d5c 29be
00000210: 689e 0c3e 1c73 7dbe b75a 353e 60f0 4ebe
00000220: 6433 67bd e888 abbd 2ba3 243e 2913 44be
00000230: 816e 35bd dba7 c8bd 8585 84bd 0b02 6ebd
00000240: 867a 54be 631f c2bd 5c37 7fbe 79e8 283e
00000250: 33ea 823d 5b29 b03c d040 15bc a81b cf3d
00000260: 1aac 4fbd 4b70 92bd 483f 17be bdac 94bd
00000270: a440 e3bb e07e 60be 71ea d1bb c4b5 cc3e
00000280: 65ba 1dbe dbb3 8c3d d0f4 e83c 185e a5bd
00000290: ea6e a3ba b09a 71bd c0ec 71bd 1160 cebe
000002a0: f636 d8bd 0983 fc3d 476f 743e 3749 29be
000002b0: 4ee3 36bd 0ae5 6cbe 5740 483d 633c 3dbd
000002c0: a8c5 9d3d 3624 8d3c d1c0 efbd 17b4 40bd
000002d0: 1243 c03d a11a b53d b44e 533c 64e8 893c
000002e0: 51c7 34be 2928 d43d de9b 09be 3a87 d2bd
000002f0: d082 f1bc 5d5e b73d d0a1 07be 2f18 833d
00000300: b24b 273d 6d02 563e 406c d3bd aeab b2bd
00000310: 1775 ca3d a2d5 673b c858 753d 4296 0e3e
00000320: 7552 acbd 658f c1bc f7f9 7ebe d42a 633d
00000330: d0fa 7bbe e923 28be 363d 9cbe 349a 55be
00000340: 52a5 9bbd 9852 0ebe 5bbc 013e d90c 4d3d
00000350: 0a72 c53c 0e11 a5be 11d7 0fbe aafd 2abe
00000360: d505 b03d 8cfb 3b3d 6d64 4ebe 0288 cebd
00000370: cc52 7b3e 7c89 d2bd 3b28 63bd cd16 89be
00000380: 84a6 9abc 8b00 91be c064 5fbc ec8f 39bd
00000390: a0e0 99be b572 12bd 664b a1bd 84f7 003e
000003a0: 7e54 29bc 933e 203e 5880 e5bd de05 a1bd
000003b0: 7c5e 253e ae6f 923d 63f7 953e 590e b5bc
000003c0: d5fc 9f3d efa5 ed3d e307 dfbd 58ce 51be
000003d0: 1386 97bd 385b b8bd 6713 4dbe f91e fd3c
000003e0: 83ef 8e3d e929 843e 1f47 83be a4c4 81bd
000003f0: a199 00bf e667 8dbd 9c1b 2f3e f187 0fbd

actor.2.bias f4 [256]
-0.26065913 0.05639712 -0.09380958 -0.03104089 -0.04707611 -0.08114627 -0.12814224 -0.091190465
-0.31361556 -0.14655183 -0.27023154 -0.16594575 -0.33484232 -0.1512327 -0.1582325 -0.086611
-0.096805744 -0.47419402 -0.103729255 0.37964162 -0.19146462 -0.33323595 -0.22151662 -0.23969781
-0.015902592 -0.09287803 -0.102908924 -0.11792206 0.10543778 -0.33215863 -0.12627594 -0.032397855
0.03221106 -0.2516759 -0.09676355 -0.43399334 -0.06820477 -0.19943772 -0.09231061 -0.37370408
-0.3562631 -0.104776934 -0.003143479 -0.011575904 -0.3897623 0.044168178 -0.13036203 -0.057635657
-0.15325713 0.03716706 0.27819705 -0.1924348 -0.006029976 -0.23162162 -0.11186484 -0.07264349
-0.12101512 -0.18854783 -0.2083465 -0.3197908 -0.11867983 -0.28171575 -0.042406004 -0.106245175
-0.08100977 -0.22305891 -0.037877057 0.056468647 -0.3116006 -0.12540264 -0.33290532 -0.0747896
-0.13702308 -0.04201191 -0.3114059 -0.3927952 -0.086314775 -0.12765977 -0.008960345 -0.34337184
-0.03200271 -0.14409924 -0.06109523 -0.16311817 -0.14952719 -0.2986731 0.10470897 -0.18059412
0.10426225 0.07155038 -0.073767796 -0.3095374 -0.021893531 0.5258681 -0.46761712 -0.061514296
-0.08254377 -0.31447077 0.121839955 -0.16478865 -0.34980226 -0.31393263 0.017277552 0.04140478
-0.25298107 0.14821501 -0.06574052 -0.002308451 -0.19254057 0.045784835 0.13551426 -0.038814947
-0.20879982 -0.40660053 -0.297261 0.07689288 -0.19202957 -0.1276327 -0.0430513 0.057245124
-0.269694 -0.26102877 -0.19304895 -0.074644014 0.04403705 -0.5338619 -0.08202813 -0.30673927
-0.23929736 -0.034160007 -0.31142002 -0.28681967 -0.22815156 -0.082441665 -0.076184414 -0.07488883
-0.14185034 -0.40215224 -0.16726275 -0.24844478 -0.08048029 -0.150528 -0.23161462 -0.41001874
-0.14332944 -0.15067059 -0.12607798 -0.25230193 0.04969367 -0.2882272 -0.16884543 -0.32283556
0.031397693 -0.024312722 0.0672976 -0.14060538 -0.1316373 0.53255343 -0.15007849 -0.22603686
-0.067859784 0.086961895 -0.36624518 -0.1972335 -0.2993904 -0.015170357 -0.43277743 0.14687043
0.011201386 -0.29077995 -0.14525732 -0.106915675 -0.101220064 -0.105352044 -0.11653272 -0.2744229
-0.18487436 -0.1284229 0.013243852 0.23366556 -0.058441438 -0.32104903 -0.17412575 -0.05754219
-0.015055851 -0.42287362 -0.2033863 -0.17375904 -0.14990412 -0.14599441 -0.15230282 -0.13847248
-0.0024091532 -0.18906647 -0.08189486 0.021744013 -0.0056123743 -0.06390138 -0.26841328 0.022343636
-0.017591123 -0.17753962 -0.12798023 -0.13093762 -0.4306634 0.02900574 -0.25904804 -0.01618233
-0.26782918 -0.28884894 -0.0705939 -0.35665426 0.042109434 -0.36738288 -0.17241172 0.110362306
-0.12999177 -0.22026265 -0.0220268 -0.22103073 -0.20071849 -0.18848196 -0.09956112 -0.04034981
-0.33823013 -0.2077393 0.24811132 -0.09099985 -0.3013438 -0.35213184 -0.07130769 -0.16932775
-0.3186526 -0.057961572 0.009165787 0.006028971 -0.003929402 -0.018958213 -0.24790952 -0.009126852
-0.2147465 -0.15381832 -0.14330167 -0.19740203 -0.31234643 -0.41339478 -0.17162332 -0.2334859
-0.06278874 -0.20249148 -0.28407732 -0.28067413 -0.006470012 -0.43216348 -0.16661787 -0.14205208
00000000: 1d75 85be ab00 673d 3d1f c0bd 7749 febc
00000010: e1d2 40bd 0430 a6bd b837 03be 11c2 babd
00000020: 3892 a0be af11 16be ca5b 8abe afed 29be
00000030: 7470 abbe bfdc 1abe b307 22be 1c61 b1bd
00000040: 1742 c6bd 8fc9 f2be 0170 d4bd 6360 c23e
00000050: 4d0f 44be e79d aabe 41d5 62be 5873 75be
00000060: 2746 82bc d636 bebd eac1 d2bd 1f81 f1bd
00000070: c3ef d73d b210 aabe 7b4e 01be 9db3 04bd
00000080: bfef 033d aadb 80be f82b c6bd 6034 debe
00000090: f1ae 8bbd 6739 4cbe 580d bdbd 2456 bfbe
000000a0: 1e68 b6be 4a95 d6bd d402 4ebb dca8 3dbc
000000b0: ed8e c7be b1e9 343d a07d 05be 5e13 6cbd
000000c0: 70ef 1cbe 7d3c 183d d86f 8e3e a10d 45be
000000d0: 1b97 c5bb 382e 6dbe 6519 e5bd 1cc6 94bd
000000e0: c6d6 f7bd af12 41be c958 55be 9fbb a3be
000000f0: 690e f3bd 0c3d 90be ebb1 2dbd 1297 d9bd
00000100: 73e8 a5bd 8e69 64be f924 1bbd ab4b 673d
00000110: 1d8a 9fbe 8d69 00be 9172 aabe 4a2b 99bd
00000120: c74f 0cbe ae14 2cbd 9870 9fbe 741c c9be
00000130: cdc5 b0bd 3eb9 02be 69ce 12bc 6fce afbe
00000140: 4615 03bd c08e 13be fe3e 7abd 7308 27be
00000150: a81d 19be aeeb 98be a871 d63d aaed 38be
00000160: 7287 d53d 0189 923d 9213 97bd b07b 9ebe
00000170: 105a b3bc 4b9f 063f 836b efbe 6af6 7bbd
00000180: b50c a9bd 5002 a1be 3a87 f93d 5bbe 28be
00000190: 4819 b3be c7bb a0be a789 8d3c 0f98 293d
000001a0: bc86 81be adc5 173e f7a2 86bd 6249 17bb
000001b0: 5b29 45be e188 3b3d 40c4 0a3e 6cfc 1ebd
000001c0: 9fcf 55be f22d d0be 9832 98be 047a 9d3d
000001d0: 66a3 44be 26b2 02be 8f56 30bd dd79 6a3d
000001e0: 5515 8abe 90a5 85be a0ae 45be f6de 98bd
000001f0: 3260 343d 2cab 08bf 5dfe a7bd ee0c 9dbe
00000200: 5e0a 75be 5deb 0bbd 7272 9fbe 07da 92be
00000210: 90a0 69be 2dd7 a8bd 9306 9cbd 515f 99bd
00000220: 3741 11be e6e6 cdbe ed46 2bbe 4f68 7ebe
00000230: dad2 a4bd 0324 1abe 622c 6dbe faed d1be
00000240: f4c4 12be 6449 1abe 961a 01be b82d 81be
00000250: 978b 4b3d 8492 93be d1e5 2cbe b44a a5be
00000260: de9a 003d 792b c7bc 53d3 893d dbfa 0fbe
00000270: eecb 06be 6c55 083f 2dae 19be 3576 67be
00000280: 12fa 8abd 1419 b23d 7d84 bbbe 94f7 49be
00000290: b349 99be 178d 78bc 0195 ddbe 3465 163e
000002a0: 0586 373c 1ce1 94be 56be 14be 9bf6 dabd
000002b0: 774c cfbd d0c2 d7bd b5a8 eebd 2981 8cbe
000002c0: b44f 3dbe 4b81 03be befc 583c 0646 6f3e
000002d0: 4a60 6fbd 8a60 a4be 054e 32be 5cb1 6bbd
000002e0: d1ac 76bc e482 d8be 8044 50be e4ed 31be
000002f0: 7780 19be 8f7f 15be 45f5 1bbe bbcb 0dbe
00000300: e2e2 1dbb a49a 41be 7eb8 a7bd 8020 b23c
00000310: 02e8 b7bb bade 82bd 776d 89be 000a b73c
00000320: 421b 90bc f2cc 35be 400d 03be 8314 06be
00000330: ea7f dcbe 729d ed3c f2a1 84be ce90 84bc
00000340: e820 89be 02e4 93be 8993 90bd 639b b6be
00000350: f17a 2c3d 9c19 bcbe b38c 30be a205 e23d
00000360: 901c 05be 888c 61be 8c71 b4bc e155 62be
00000370: 2689 4dbe 6a01 41be b3e6 cbbd d845 25bd
00000380: 802c adbe 9cb9 54be e510 7e3e 215e babd
00000390: bc49 9abe a04a b4be c409 92bd 4164 2dbe
000003a0: 6f26 a3be 1d69 6dbd 192c 163c ad8e c53b
000003b0: 37c2 80bb 414e 9bbc fedb 7dbe cb88 15bc
000003c0: 82e6 5bbe 8d82 1dbe acbd 12be c223 4abe
000003d0: dfeb 9fbe 7ba8 d3be 06be 2fbe ee16 6fbe
000003e0: 6297 80bd ed59 4fbe 9572 91be 85b4 8fbe
000003f0: 6502 d4bb 8844 ddbe e09d 2abe 1a76 11be

actor.4.weight f4 [256, 256]
0.2673725 0.04780957 0.027272852 -0.020161837 -0.23047775 0.0018476354 0.11974986 -0.12778477
0.15933545 0.1610542 -0.1813332 0.33390084 -0.013286179 -0.14658937 0.050959334 0.058811147
0.19472536 0.09069756 -0.08346337 -0.068395875 0.044409927 0.1649611 -0.2417215 -0.11512731
0.10745207 -0.08602279 0.23789693 -0.07846345 0.06563995 -0.106100455 0.11264263 0.14557831
0.06533259 -0.11159364 -0.113882825 0.11392359 0.16123046 0.025028158 -0.1564945 0.052180782
-0.15712672 0.052289777 -0.038573038 0.056668777 0.11244656 0.023097727 0.09377646 0.07431641
0.0577886 -0.13881831 0.08744709 -0.210635 -0.075178795 0.084103264 -0.11450336 0.096347064
-0.017365526 0.14619052 0.04478657 -0.24090162 -0.17425303 0.07959955 -0.038722675 0.18246336
-0.1396775 -0.022098092 0.033487927 0.01078582 0.113782935 -0.1396687 0.03626984 -0.11666182
0.06107982 -0.044442505 0.0097166095 -0.022408228 -0.080748 -0.05851176 0.038188733 -0.14884888
0.022056948 0.07441918 0.109892994 -0.0860115 0.17606649 0.03946623 0.19135189 -0.13565299
0.13413146 -0.00057190086 0.03558511 0.05474968 -0.122344874 0.029107137 0.011109179 -0.056269575
-0.17509243 0.038606238 -0.06197492 0.007218343 0.03844437 0.012465042 -0.14669006 0.12012652
-0.15998428 -0.025495423 -0.08036214 0.02006747 -0.17464085 -0.058361195 -0.22234772 -0.07185883
0.07262235 0.1094226 0.07672309 0.09198869 -0.04757519 0.092250906 -0.042734995 0.038870033
0.10820106 0.31488904 0.13975239 -0.1997341 -0.092936665 0.06389497 -0.048818585 0.068115234
0.06619332 -0.025929715 -0.028035536 -0.013633664 0.14025857 -0.07165438 0.049455665 0.013173368
-0.021847777 0.12936138 0.09146372 0.14774226 -0.21593258 -0.16168723 -0.09667793 0.011066781
0.091339916 0.085888185 -0.18986343 -0.01496718 0.11392753 -0.05053125 0.046937335 -0.0072334325
0.016958294 0.14166868 -0.083225265 -0.10112312 0.007227999 0.014647149 -0.17516254 0.035419405
0.10146384 0.11632034 0.20527698 -0.071227185 -0.09528302 -0.073989555 0.08025792 -0.025484415
0.10665295 0.025705826 0.14702927 -0.0060003195 0.16633196 0.064341456 -0.22685806 0.05298638
-0.14252666 0.0054246685 -0.12104304 -0.0037933032 0.057153173 0.09498578 0.10474666 0.06093615
-0.019783787 -0.3121064 0.12556316 -0.06546412 0.22762537 -0.09579377 0.15190035 0.06507999
-0.1658335 0.060101785 0.0792093 0.083634846 0.19256113 -0.04127035 0.043582696 -0.099081986
0.25517836 0.05718577 0.04573113 -0.0056646816 0.098269396 0.04914913 -0.17850468 0.16357072
0.093331575 0.17367645 0.021516347 0.03484445 -0.18975413 0.23007555 0.20263325 -0.23813221
-0.03552935 0.2093081 -0.22007799 0.078406885 0.030547936 -0.33640757 -0.14311759 -0.14988925
0.23276484 -0.07911405 0.019780438 0.0018496339 -0.025627475 0.24921511 0.07488949 0.20549633
-0.09482344 -0.14645207 -0.012592312 0.011193744 -0.17603137 0.13859722 0.2393849 0.058615543
0.20048618 -0.1551487 -0.023090081 -0.2473111 0.0006841607 0.08411009 0.061676167 -0.08736896
0.31096873 0.09048518 0.124038935 0.012450485 -0.04541814 -0.100863576 0.1476226 -0.2784884
00000000: 0ce5 883e f8d3 433d 516b df3c 702a a5bc
00000010: 5c02 6cbe 5b2c f23a 6a3f f53d 03da 02be
00000020: d528 233e 64eb 243e 69af 39be 0df5 aa3e
00000030: 46ae 59bc 861b 16be bcba 503d f5e3 703d
00000040: 1666 473e a4bf b93d d8ee aabd 2313 8cbd
00000050: 2fe7 353d 90eb 283e d785 77be dec7 ebbd
00000060: d50f dc3d b72c b0bd 419b 733e 72b1 a0bd
00000070: 3d6e 863d 324b d9bd 2eb1 e63d 7b12 153e
00000080: 18cd 853d 358b e4bd 663b e9bd c550 e93d
00000090: 9919 253e da07 cd3c 1840 20be 84bb 553d
000000a0: d4e5 20be ce2d 563d c3fe 1dbd 851d 683d
000000b0: 624a e63d 7237 bd3c df0d c03d 3433 983d
000000c0: bdb3 6c3d 6326 0ebe 7617 b33d b4b0 57be
000000d0: 57f7 99bd 553e ac3d bd80 eabd 9c51 c53d
000000e0: 2642 8ebc f8b2 153e 1f72 373d eaae 76be
000000f0: 636f 32be 1705 a33d ab9b 1ebd add7 3a3e
00000100: 9e07 0fbe 0f07 b5bc a32a 093d 02b7 303c
00000110: 0707 e93d 5005 0fbe af8f 143d 64ec eebd
00000120: d52e 7a3d 5809 36bd 6a32 1f3c 7691 b7bc
00000130: 355f a5bd 07aa 6fbd ca6b 1c3d d76b 18be
00000140: c6b0 b43c 1569 983d 940f e13d cc26 b0bd
00000150: c64a 343e 57a7 213d c0f1 433e 9ee8 0abe
00000160: c259 093e 9eeb 15ba b1c1 113d 3341 603d
00000170: f38f fabd 1772 ee3c 4603 363c ed7a 66bd
00000180: 6e4b 33be 9321 1e3d 6ad9 7dbd da87 ec3b
00000190: d877 1d3d 2d3a 4c3c eb35 16be e504 f63d
000001a0: ebd2 23be c7db d0bc e894 a4bd 8964 a43c
000001b0: 0dd5 32be 260c 6fbd 1faf 63be b92a 93bd
000001c0: 07bb 943d f518 e03d ff20 9d3d 9164 bc3d
000001d0: 34de 42bd 0bee bc3d e40a 2fbd 2f36 1f3d
000001e0: 8498 dd3d 2339 a13e 401b 0f3e 1987 4cbe
000001f0: 9455 bebd 5edb 823d fff5 47bd 0080 8b3d
00000200: 5d90 873d 8e6a d4bc c8aa e5bc bb5f 5fbc
00000210: f19f 0f3e 88bf 92bd 0692 4a3d 1cd5 573c
00000220: 1cfa b2bc 4f77 043e 5551 bb3d bf49 173e
00000230: 6e1d 5dbe 5691 25be 14ff c5bd 7251 353c
00000240: 6c10 bb3d 25e6 af3d 8f6b 42be e738 75bc
00000250: d652 e93d dbf9 4ebd 5d41 403d 6e06 edbb
00000260: 1fec 8a3c 9811 113e 0272 aabd a319 cfbd
00000270: dad8 ec3b 98fa 6f3c cf5d 33be f013 113d
00000280: 46cc cf3d 5c39 ee3d 2134 523e 8fdf 91bd
00000290: be23 c3bd d687 97bd 445e a43d b1c4 d0bc
000002a0: dd6c da3d 0695 d23c d78e 163e 549e c4bb
000002b0: ed52 2a3e 74c5 833d 7b4d 68be 3f08 593d
000002c0: 82f2 11be 6bc1 b13b 6ae5 f7bd 1199 78bb
000002d0: 7219 6a3d e887 c23d 6b85 d63d 2f98 793d
000002e0: 9c11 a2bc 69cc 9fbe a193 003e 0d12 86bd
000002f0: a016 693e 862f c4bd c48b 1b3e a848 853d
00000300: 42d0 29be 4a2d 763d 7c38 a23d bf48 ab3d
00000310: bf2e 453e 190b 29bd c583 323d 7feb cabd
00000320: bda6 823e a03b 6a3d 9150 3b3d cb9e b9bb
00000330: 7741 c93d 9950 493d eec9 36be 157f 273e
00000340: a024 bf3d 3dd8 313e 0d43 b03c 0eb9 0e3d
00000350: e84e 42be ed98 6b3e 177f 4f3e eed8 73be
00000360: 3987 11bd dd54 563e 205c 61be ca93 a03d
00000370: aa3f fa3c 9d3d acbe 6b8d 12be 917c 19be
00000380: e859 6e3e 8c06 a2bd 960a a23c 6a6f f23a
00000390: b6f0 d1bc 3f32 7f3e a95f 993d a16d 523e
000003a0: cb32 c2bd 88f7 15be fc4f 4ebc f765 373c
000003b0: 9141 34be 6eec 0d3e 5121 753e da16 703d
000003c0: 404c 4d3e 4ddf 1ebe 6927 bdbc 1f3f 7dbe
000003d0: 3f59 333a e941 ac3d 26a0 7c3d 7fee b2bd
000003e0: 4b37 9f3e 4b50 b93d 2008 fe3d 1efd 4b3c
000003f0: 5f08 3abd 9091 cebd 612a 173e 0896 8ebe

actor.4.bias f4 [256]
-0.13582174 -0.08363591 -0.41909295 -0.058616944 -0.11649593 -0.12290231 -0.065365985 -0.1657138
-0.15222575 -0.2988674 -0.0814253 -0.1460413 -0.34265432 -0.14633514 -0.40054703 -0.22907493
-0.13097247 -0.18705788 -0.16140658 -0.04105622 -0.026254833 -0.15195473 -0.14905024 -0.049980573
-0.3215033 -0.05225345 -0.06080943 -0.22246549 -0.011256587 -0.026305001 -0.07578429 -0.05321674
-0.10234605 -0.098286465 -0.050215032 -0.10857156 -0.026969904 -0.17778252 -0.34008035 -0.42274734
-0.023507202 -0.096688226 -0.08348313 -0.4839591 -0.13805668 -0.1500897 -0.100003675 -0.08487685
-0.38376668 -0.19347855 -0.16498117 -0.12573238 -0.14412336 -0.08961366 0.02039955 -0.09905096
-0.14320302 -0.011960548 -0.2981243 -0.3729033 -0.2026996 -0.103660695 -0.0910348 -0.10717962
0.005375982 -0.1215435 -0.1142336 -0.14227398 -0.113126636 -0.25870368 -0.13391425 -0.183697
-0.020989927 -0.025851963 -0.06698655 -0.12491449 -0.23019163 -0.08936869 -0.1832829 -0.1669966
-0.12768242 -0.06498278 -0.10614764 -0.27427268 -0.04908103 -0.21247132 -0.2314089 -0.15765245
-0.11824692 -0.14009891 -0.04242168 -0.4799405 -0.026381396 0.005615309 -0.062230848 -0.22684103
-0.103693336 -0.12400605 -0.15661485 -0.51619977 -0.31932437 -0.10850909 -0.053539723 -0.29355073
-0.08958964 -0.2498824 -0.016473576 -0.09164086 -0.103422634 -0.09289206 -0.176318 -0.12925701
-0.2612726 -0.4107467 -0.018303754 -0.17950267 -0.095980175 -0.064047 -0.10110587 -0.025268834
-0.034666423 -0.38964128 -0.11327835 -0.07743075 -0.18018521 -0.1623811 -0.4138705 -0.12028244
-0.11681256 -0.12009786 -0.09029791 0.027420403 -0.010769668 -0.15557599 -0.15475671 0.02187291
-0.15763906 -0.11408056 -0.11346863 -0.13559715 -0.13218977 -0.1404904 -0.14408125 -0.09146182
-0.06825544 -0.08815623 -0.13404801 -0.20852736 -0.15095307 -0.05377728 0.0015585385 -0.18292846
-0.11202055 -0.38904434 -0.111692265 -0.2343647 -0.16835897 0.0039870376 -0.03887645 -0.14938283
-0.059056383 -0.16686876 -0.3702617 -0.06777954 -0.04605996 -0.20156823 -0.0752308 -0.3518284
-0.14624596 -0.25798607 -0.062828764 -0.11973574 -0.20155455 -0.13021918 -0.054458246 -0.101946756
-0.30311832 0.009217394 -0.2593245 -0.35937548 -0.43133733 -0.30497986 -0.12260183 0.014311494
-0.08925664 -0.051527467 -0.07726601 -0.14776021 -0.18641599 -0.11145777 -0.10684418 -0.16303635
-0.044879507 -0.10923617 -0.1673151 -0.30430532 -0.5675596 -0.116078794 -0.06260979 -0.03725594
-0.09426983 -0.02827515 -0.108263396 -0.10595782 -0.17126565 -0.114148356 -0.13666813 -0.10614856
-0.13359837 -0.1766723 -0.18149841 -0.20427905 -0.11381351 -0.22003676 -0.13248982 -0.14036295
-0.081633694 -0.040677194 -0.2230903 -0.091271006 -0.24007349 -0.078937806 -0.059364405 -0.10796153
-0.15951271 -0.09827375 -0.36276332 -0.23542723 -0.2740769 -0.054388292 -0.08049255 -0.047997195
-0.23527351 -0.083072014 -0.21342748 -0.01435752 -0.17305557 0.0004213345 -0.15229402 -0.22354701
-0.189976 -0.29132584 -0.13495462 -0.08994295 -0.077857696 -0.022690138 -0.2626438 -0.065728515
-0.1124021 -0.12174682 -0.19525455 -0.21571697 -0.043611813 -0.30284756 -0.30710042 -0.08652237
00000000: db14 0bbe 4e49 abbd 5a93 d6be 5218 70bd
00000010: 6b95 eebd 35b4 fbbd 9ade 85bd e1b0 29be
00000020: 11e1 1bbe 2605 99be 4fc2 a6bd da8b 15be
00000030: 6370 afbe e1d8 15be 8014 cdbe 9e92 6abe
00000040: a61d 06be 1a8c 3fbe c447 25be 912a 28bd
00000050: 6014 d7bc 059a 1bbe a0a0 18be 6eb8 4cbd
00000060: 159c a4be b707 56bd 4f13 79bd fecd 63be
00000070: 8c6d 38bc 967d d7bc cb34 9bbd ccf9 59bd
00000080: ce9a d1bd 6a4a c9bd 47ae 4dbd c45a debd
00000090: fdef dcbc 9f0c 36be 031f aebe 5772 d8be
000000a0: 2d92 c0bc 7a04 c6bd 34f9 aabd 7dc9 f7be
000000b0: bb5e 0dbe 1db1 19be bace ccbd ead3 adbd
000000c0: 117d c4be 3e1f 46be d3f0 28be fdbf 00be
000000d0: 1395 13be 5e87 b7bd f51c a73c 3bdb cabd
000000e0: d0a3 12be 2df6 43bc c0a3 98be 2eed bebe
000000f0: 7c90 4fbe 0f4c d4bd 7470 babd fd80 dbbd
00000100: 0129 b03b cceb f8bd 4ef3 e9bd 45b0 11be
00000110: f0ae e7bd cf74 84be d120 09be 111b 3cbe
00000120: 11f3 abbc 7fc7 d3bc 3f30 89bd 2bd3 ffbd
00000130: 5bb7 6bbe ef06 b7bd 83ae 3bbe 2801 2bbe
00000140: 2ebf 02be b115 85bd ef63 d9bd 786d 8cbe
00000150: 3109 49bd 1592 59be 74f6 6cbe a56f 21be
00000160: 712b f2bd 1776 0fbe 5bc2 2dbd c3ba f5be
00000170: cc1d d8bc a000 b83b c6e5 7ebd 0449 68be
00000180: 2c5d d4bd e2f6 fdbd a55f 20be ab25 04bf
00000190: 7c7e a3be 043a debd 784c 5bbd 484c 96be
000001a0: c67a b7bd 2ce1 7fbe 98f3 86bc 34ae bbbd
000001b0: 3fcf d3bd 313e bebd b58c 34be f35b 04be
000001c0: 86c5 85be 644d d2be c1f1 95bc 8ccf 37be
000001d0: 4191 c4bd 132b 83bd 9810 cfbd 9600 cfbc
000001e0: 61fe 0dbd 107f c7be 7bfe e7bd 0394 9ebd
000001f0: 7982 38be 3b47 26be d6e6 d3be a456 f6bd
00000200: 6c3b efbd def5 f5bd 1cee b8bd c1a0 e03c
00000210: 4373 30bc 504f 1fbe 8b78 1ebe d12e b33c
00000220: 226c 21be 12a3 e9bd 3e62 e8bd fbd9 0abe
00000230: c15c 07be b7dc 0fbe 098a 13be 5650 bbbd
00000240: 82c9 8bbd 418b b4bd e243 09be 3288 55be
00000250: 7193 1abe 9145 5cbd e047 cc3a 9951 3bbe
00000260: 086b e5bd d230 c7be eabe e4bd 4dfd 6fbe
00000270: 4b66 2cbe b2a5 823b ea3c 1fbd d0f7 18be
00000280: 1be5 71bd a5df 2abe f192 bdbe 00d0 8abd
00000290: 5ea9 3cbd e767 4ebe 9b12 9abd da22 b4be
000002a0: 80c1 15be c016 84be 5eac 80bd 0338 f5bd
000002b0: 5164 4ebe 2d58 05be 9c0f 5fbd 76c9 d0bd
000002c0: 5332 9bbe 8d04 173c 2ec6 84be 1000 b8be
000002d0: 3fd8 dcbe 5226 9cbe ab16 fbbd c27a 6a3c
000002e0: 2fcc b6bd 770e 53bd a43d 9ebd 744e 17be
000002f0: d5e3 3ebe f943 e4bd 1fd1 dabd 00f3 26be
00000300: 93d3 37bd 37b7 dfbd a654 2bbe e8cd 9bbe
00000310: 964b 11bf b8ba edbd 9039 80bd af99 18bd
00000320: 8a10 c1bd 4aa1 e7bc 33b9 ddbd 6a00 d9bd
00000330: 4360 2fbe 9dc6 e9bd bbf2 0bbe 6b64 d9bd
00000340: 03ce 08be 95e9 34be b8da 39be 872e 51be
00000350: 0f17 e9bd 5151 61be 69ab 07be 4ebb 0fbe
00000360: 912f a7bd 219d 26bd c971 64be 4bec babd
00000370: d3d5 75be 25aa a1bd 1728 73bd ef1a ddbd
00000380: 4d57 23be bf43 c9bd 1dbc b9be d613 71be
00000390: cf53 8cbe 42c6 5ebd 47d9 a4bd b598 44bd
000003a0: 8aeb 70be a921 aabd bc8c 5abe ce3b 6bbc
000003b0: 7b35 31be 8fe6 dc39 f7f2 1bbe 82e9 64be
000003c0: 1289 42be a928 95be 8b31 0abe 0234 b8bd
000003d0: db73 9fbd abe0 b9bc 4079 86be ac9c 86bd
000003e0: 1233 e6bd 6656 f9bd cff0 47be e9e4 5cbe
000003f0: 4da2 32bd d60e 9bbe 443c 9dbe a432 b1bd

actor.6.weight f4 [9, 256]
-0.09200743 -0.029069463 0.11789745 -0.0034356047 0.04039715 -0.006141908 -0.026293952 0.056137264
-0.03423964 0.057853326 -0.0002634495 -0.020462459 -0.035885796 0.023819307 -0.02368532 -0.024266964
0.0046785166 -0.00448947 0.003774754 0.03513577 0.00762851 0.028204994 0.0074556796 -0.09054785
0.019317403 -0.014438356 0.0033337688 0.034769062 0.043634307 -0.05083426 0.039171062 -0.019129392
-0.0005361483 -0.048340235 -0.07735078 0.020432897 -0.0067227003 0.04310891 -0.0143199 0.042404935
-0.07573045 0.018877883 0.003952353 0.06877185 0.029827584 -0.018300125 0.025106333 0.044742994
0.054495167 -0.044951636 -0.0096896235 0.06915372 -0.021410298 -0.016132433 0.0048002596 -0.02520285
0.06420887 -0.027469957 0.029103749 0.062446326 -0.01697184 -0.088481545 -0.019988814 0.02217445
-0.01892539 0.07535646 -0.028904239 -0.007175142 -0.014083748 0.08777185 -0.0009275325 -0.02278234
-0.010674878 -0.0004304033 0.037049644 0.007114719 0.10505036 -0.006078406 0.040881068 -0.014716232
0.013951633 -0.007574019 0.005720682 0.020421332 0.008820309 0.028629633 -0.026655389 0.007486129
-0.02134405 0.04649001 -0.023402447 0.12087899 -0.04616921 -0.04319246 -0.023226047 0.011244132
0.096039124 0.021489432 -0.010666884 0.06591328 -0.017754368 -0.0037266684 -0.10830936 -0.0016140363
-0.008522387 -0.004461008 -0.009400653 0.05071522 0.0036355313 0.042195912 -2.791506e-05 -0.015514592
0.029072963 0.047414497 0.0054824916 0.018176818 0.0056731817 -0.11245222 0.031181112 -0.072704606
0.046688 0.024217889 0.0030069551 0.028904336 -0.0069788103 0.045399595 0.054144055 -0.023959342
-0.02421535 -0.030551363 0.027989496 -0.026167456 -0.031947676 0.066692546 0.009823623 0.0072798897
-0.023141788 0.018784687 -0.03541267 0.0138550615 -0.015496887 -0.018241636 -0.0069964416 -0.0007525
0.041508134 -0.018555049 -0.009480122 0.011822764 -0.019775625 0.004942727 0.015666485 -0.19611028
0.049011935 0.081343964 0.01794499 -0.01795772 0.0035083753 -0.00998563 -0.0015166897 -0.03224777
-0.0065973923 -0.019306792 0.12177133 -0.009215327 -0.02324193 0.02487074 0.03322377 -0.016468847
-0.039943207 0.081945285 -0.013241318 0.012317044 0.008487416 -0.007378864 -0.03937098 -0.011860411
0.0039015627 0.025595497 -2.7121027e-05 0.0055576665 0.03962994 -0.010756558 0.009371476 0.008500059
0.014515812 -0.010453927 0.014389269 0.04864053 -0.016862946 -0.030817293 -0.02731725 0.008840563
-0.04502862 -0.05126755 0.0002914077 -0.03660164 0.08058235 -0.078692466 0.009144011 -0.0317205
-0.005602215 0.09818762 0.06674914 -0.023020461 0.027798709 0.026381556 0.032662593 0.003226421
-0.0007157924 0.014182297 0.006405656 -0.02748236 0.042998914 0.029182563 0.04212478 0.017650539
0.03509026 -0.018448066 -0.023675058 0.044926792 0.01971829 -0.079649635 0.025022246 -0.0026679605
-0.037677053 -0.009178076 0.07814324 0.0336345 0.17764342 -0.013157471 0.012044596 0.06287248
-0.032550987 0.057594445 0.0111349 -0.0102651715 -0.043983728 -0.06863902 0.014897575 0.05469225
-0.030448286 -0.00472335 -0.009846734 0.0013584042 0.03408707 -0.0071714097 0.025920644 0.03511604
-0.010016866 0.05246061 -0.011613574 -0.043871894 0.030279743 -0.08373552 0.077305265 -0.012438476
00000000: 646e bcbd 1523 eebc 3874 f13d e227 61bb
00000010: 7b77 253d 0f42 c9bb 6a66 d7bc 30f0 653d
00000020: dd3e 0cbd 9cf7 6c3d 981f 8ab9 e3a0 a7bc
00000030: fcfc 12bd b520 c33c b707 c2bc 83cb c6bc
00000040: 3e4e 993b 671c 93bb dd61 773b 86ea 0f3d
00000050: 94f8 f93b 290e e73c c64e f43b 2771 b9bd
00000060: 883f 9e3c db8e 6cbc 5c7b 5a3b 016a 0e3d
00000070: e3b9 323d 9637 50bd d671 203d 3eb5 9cbc
00000080: 4e8c 0cba 6900 46bd 166a 9ebd e462 a73c
00000090: 194a dcbb f892 303d 049e 6abc ccb0 2d3d
000000a0: 9118 9bbd caa5 9a3c bd82 813b 41d8 8c3d
000000b0: fa58 f43c 25ea 95bc ccab cd3c 6e44 373d
000000c0: 5336 5f3d 351f 38bd 3ac1 1ebc 77a0 8d3d
000000d0: a664 afbc 2a28 84bc 7f4b 9d3b 3576 cebc
000000e0: f17f 833d ad08 e1bc fc6a ee3c b8c7 7f3d
000000f0: 8708 8bbc d035 b5bd 95bf a3bc 31a7 b53c
00000100: 6b09 9bbc 7d54 9a3d 95c8 ecbc 741d ebbb
00000110: 85bf 66bc bac1 b33d a725 73ba 08a2 babc
00000120: afe5 2ebc c1a7 e1b9 5ec1 173d 9722 e93b
00000130: a524 d73d 5d2d c7bb e872 273d 5a1c 71bc
00000140: 6495 643c 7a2f f8bb 8f74 bb3b a34a a73c
00000150: 0f83 103c b188 ea3c 675c dabc 344e f53b
00000160: b8d9 aebc 4f6c 3e3d 7db6 bfbc 678f f73d
00000170: ed1b 3dbd 94ea 30bd 8d44 bebc 4f39 383c
00000180: 29b0 c43d 9b0a b03c 27c4 2ebc 8bfd 863d
00000190: 9c71 91bc 1f3b 74bb 4cd1 ddbd 128e d3ba
000001a0: 7ba1 0bbc a62d 92bb 3205 1abc c3ba 4f3d
000001b0: 1842 6e3b 9fd5 2c3d 232b eab7 ea30 7ebc
000001c0: 6c2a ee3c b435 423d 79a6 b33b 8de7 943c
000001d0: 19e6 b93b 594d e6bd 886f ff3c 27e6 94bd
000001e0: eb3b 3f3d 9864 c63c 5610 453b c9c8 ec3c
000001f0: 81ae e4bb edf4 393d 28c6 5d3d 6246 c4bc
00000200: 455f c6bc da46 fabc 3a4a e53c 225d d6bc
00000210: 91db 02bd 1a96 883d 43f3 203c 248c ee3b
00000220: d993 bdbc 58e2 993c e00c 11bd 5700 633c
00000230: a8e6 7dbc 7c6f 95bc 6842 e5bb 6c43 45ba
00000240: 6f04 2a3d c200 98bc 8352 1bbc 44b4 413c
00000250: 7e00 a2bc 99f6 a13b 0057 803c 22d1 48be
00000260: bdc0 483d aa97 a63d 5f01 933c 121c 93bc
00000270: c5ec 653b c59a 23bc a9cb c6ba 3d16 04bd
00000280: f02e d8bb 4729 9ebc 3f63 f93d e2fb 16bc
00000290: dc65 bebc b9bd cb3c a615 083d ade9 86bc
000002a0: 7d9b 23bd eed2 a73d 1df2 58bc 6dcd 493c
000002b0: ce0e 0b3c 66ca f1bb 7743 21bd 2b52 42bc
000002c0: 5cb1 7f3b a6ad d13c f681 e3b7 161d b63b
000002d0: 0153 223d 463c 30bc d28a 193c d543 0b3c
000002e0: bad3 6d3c f346 2bbc f8c0 6b3c 4b3b 473d
000002f0: 2924 8abc 8c74 fcbc 6dc8 dfbc 02d8 103c
00000300: ee6f 38bd ecfd 51bd 14c8 9839 9aeb 15bd
00000310: 5c08 a53d 8429 a1bd c3d0 153c 5bed 01bd
00000320: c992 b7bb 9716 c93d c6b3 883d 6895 bcbc
00000330: 1eba e33c 221e d83c 36c9 053d 5d72 533b
00000340: 04a4 3bba dd5c 683c 8ae6 d13b b022 e1bc
00000350: a11f 303d 4510 ef3c 098b 2c3d dd97 903c
00000360: ceba 0f3d 6620 97bc 32f2 c1bc 2805 383d
00000370: 4088 a13c 591f a3bd 74fb cc3c f3d8 2ebb
00000380: 4153 1abd a45f 16bc 9009 a03d 54c4 093d
00000390: 28e8 353e 6f92 57bc b256 453c 49c3 803d
000003a0: 2f54 05bd 27e8 6b3d 286f 363c 402f 28bc
000003b0: 4828 34bd 9d92 8cbd f514 743c fb04 603d
000003c0: af6e f9bc 55c6 9abb 3254 21bc 7b0c b23a
000003d0: e29e 0b3d 25fe eabb 8857 d43c d6d5 0f3d
000003e0: c81d 24bc f0e0 563d dc46 3ebc 04b3 33bd
000003f0: 390d f83c 877d abbd 3952 9e3d c0ca 4bbc

actor.6.bias f4 [9]
-0.103244245 0.02085143 0.08655293 -0.05450806 0.085842 0.09251867 0.21066396 -0.15951101
-0.22162248
00000000: b871 d3bd 9ed0 aa3c aa42 b13d d843 5fbd
00000010: eecd af3d 6e7a bd3d 4bb8 573e db56 23be
00000020: 01f1 62be
